…
ze (Tuple[int, int, int]): Image size as a tuple of (channels, height, width). Returns: model_summary (torchsummary.model_statistics.ModelStatistics): Model summary. \"\"\" model_summary = torchsummary . summary ( model , image_size ) return model_summary alexnet_model_summary = torchsummary_wrapper ( alexnet_ , image_size = ( 3 , 224 , 224 )) ========================================================================================== Layer (type:depth-idx) Output Shape Param # ========================================================================================== \u251c\u2500Sequential: 1-1 [-1, 256, 6, 6] -- | \u2514\u2500Conv2d: 2-1 [-1, 64, 55, 55] 23,296 | \u2514\u2500ReLU: 2-2 [-1, 64, 55, 55] -- | \u2514\u2500MaxPool2d: 2-3 [-1, 64, 27, 27] -- | \u2514\u2500Conv2d: 2-4 [-1, 192, 27, 27] 307,392 | \u2514\u2500ReLU: 2-5 [-1, 192, 27, 27] -- | \u2514\u2500MaxPool2d: 2-6 [-1, 192, 13, 13] -- | \u2514\u2500Conv2d: 2-7 [-1, 384, 13, 13] 663,936 | \u2514\u2500ReLU: 2-8 [-1, 384, 13, 13] -- | \u2514\u2500Conv2d: 2-9 [-1, 256, 13, 13] 884,992 | \u2514\u2500ReLU: 2-10 [-1, 256, 13, 13] -- | \u2514\u2500Conv2d: 2-11 [-1, 256, 13, 13] 590,080 | \u2514\u2500ReLU: 2-12 [-1, 256, 13, 13] -- | \u2514\u2500MaxPool2d: 2-13 [-1, 256, 6, 6] -- \u251c\u2500AdaptiveAvgPool2d: 1-2 [-1, 256, 6, 6] -- \u251c\u2500Sequential: 1-3 [-1, 1000] -- | \u2514\u2500Dropout: 2-14 [-1, 9216] -- | \u2514\u2500Linear: 2-15 [-1, 4096] 37,752,832 | \u2514\u2500ReLU: 2-16 [-1, 4096] -- | \u2514\u2500Dropout: 2-17 [-1, 4096] -- | \u2514\u2500Linear: 2-18 [-1, 4096] 16,781,312 | \u2514\u2500ReLU: 2-19 [-1, 4096] -- | \u2514\u2500Linear: 2-20 [-1, 1000] 4,097,000 ========================================================================================== Total params: 61,100,840 Trainable params: 61,100,840 Non-trainable params: 0 Total mult-adds (M): 775.28 ========================================================================================== Input size (MB): 0.57 Forward/backward pass size (MB): 3.77 Params size (MB): 233.08 Estimated Total Size (MB): 237.43 ========================================================================================== vgg16_model_summary = torchsummary_wrapper ( vgg16_ , image_size = ( 3 , 224 , 224 )) ========================================================================================== Layer (type:depth-idx) Output Shape Param # ========================================================================================== \u251c\u2500Sequential: 1-1 [-1, 512, 7, 7] -- | \u2514\u2500Conv2d: 2-1 [-1, 64, 224, 224] 1,792 | \u2514\u2500ReLU: 2-2 [-1, 64, 224, 224] -- | \u2514\u2500Conv2d: 2-3 [-1, 64, 224, 224] 36,928 | \u2514\u2500ReLU: 2-4 [-1, 64, 224, 224] -- | \u2514\u2500MaxPool2d: 2-5 [-1, 64, 112, 112] -- | \u2514\u2500Conv2d: 2-6 [-1, 128, 112, 112] 73,856 | \u2514\u2500ReLU: 2-7 [-1, 128, 112, 112] -- | \u2514\u2500Conv2d: 2-8 [-1, 128, 112, 112] 147,584 | \u2514\u2500ReLU: 2-9 [-1, 128, 112, 112] -- | \u2514\u2500MaxPool2d: 2-10 [-1, 128, 56, 56] -- | \u2514\u2500Conv2d: 2-11 [-1, 256, 56, 56] 295,168 | \u2514\u2500ReLU: 2-12 [-1, 256, 56, 56] -- | \u2514\u2500Conv2d: 2-13 [-1, 256, 56, 56] 590,080 | \u2514\u2500ReLU: 2-14 [-1, 256, 56, 56] -- | \u2514\u2500Conv2d: 2-15 [-1, 256, 56, 56] 590,080 | \u2514\u2500ReLU: 2-16 [-1, 256, 56, 56] -- | \u2514\u2500MaxPool2d: 2-17 [-1, 256, 28, 28] -- | \u2514\u2500Conv2d: 2-18 [-1, 512, 28, 28] 1,180,160 | \u2514\u2500ReLU: 2-19 [-1, 512, 28, 28] -- | \u2514\u2500Conv2d: 2-20 [-1, 512, 28, 28] 2,359,808 | \u2514\u2500ReLU: 2-21 [-1, 512, 28, 28] -- | \u2514\u2500Conv2d: 2-22 [-1, 512, 28, 28] 2,359,808 | \u2514\u2500ReLU: 2-23 [-1, 512, 28, 28] -- | \u2514\u2500MaxPool2d: 2-24 [-1, 512, 14, 14] -- | \u2514\u2500Conv2d: 2-25 [-1, 512, 14, 14] 2,359,808 | \u2514\u2500ReLU: 2-26 [-1, 512, 14, 14] -- | \u2514\u2500Conv2d: 2-27 [-1, 512, 14, 14] 2,359,808 | \u2514\u2500ReLU: 2-28 [-1, 512, 14, 14] -- | \u2514\u2500Conv2d: 2-29 [-1, 512, 14, 14] 2,359,808 | \u2514\u2500ReLU: 2-30 [-1, 512, 14, 14] -- | \u2514\u2500MaxPool2d: 2-31 [-1, 512, 7, 7] -- \u251c\u2500AdaptiveAvgPool2d: 1-2 [-1, 512, 7, 7] -- \u251c\u2500Sequential: 1-3 [-1, 1000] -- | \u2514\u2500Linear: 2-32 [-1, 4096] 102,764,544 | \u2514\u2500ReLU: 2-33 [-1, 4096] -- | \u2514\u2500Dropout: 2-34 [-1, 4096] -- | \u2514\u2500Linear: 2-35 [-1, 4096] 16,781,312 | \u2514\u2500ReLU: 2-36 [-1, 4096] -- | \u2514\u2500Dropout: 2-37 [-1, 4096] -- | \u2514\u2500Linear: 2-38 [-1, 1000] 4,097,000 ========================================================================================== Total params: 138,357,544 Trainable params: 138,357,544 Non-trainable params: 0 Total mult-adds (G): 15.61 ========================================================================================== Input size (MB): 0.57 Forward/backward pass size (MB): 103.43 Params size (MB): 527.79 Estimated Total Size (M
…
_ = vgg19 ( pretrained = True ) resnet34_ = resnet34 ( pretrained = True ) Downloading: \"https://download.pytorch.org/models/resnet34-b627a593.pth\" to C:\\Users\\reighns/.cache\\torch\\hub\\checkpoints\\resnet34-b627a593.pth 0%| | 0.00/83.3M [00:00<?, ?B/s] vgg19_model_summary = torchsummary_wrapper ( vgg19_ , image_size = ( 3 , 224 , 224 )) ========================================================================================== Layer (type:depth-idx) Output Shape Param # ========================================================================================== \u251c\u2500Sequential: 1-1 [-1, 512, 7, 7] -- | \u2514\u2500Conv2d: 2-1 [-1, 64, 224, 224] 1,792 | \u2514\u2500ReLU: 2-2 [-1, 64, 224, 224] -- | \u2514\u2500Conv2d: 2-3 [-1, 64, 224, 224] 36,928 | \u2514\u2500ReLU: 2-4 [-1, 64, 224, 224] -- | \u2514\u2500MaxPool2d: 2-5 [-1, 64, 112, 112] -- | \u2514\u2500Conv2d: 2-6 [-1, 128, 112, 112] 73,856 | \u2514\u2500ReLU: 2-7 [-1, 128, 112, 112] -- | \u2514\u2500Conv2d: 2-8 [-1, 128, 112, 112] 147,584 | \u2514\u2500ReLU: 2-9 [-1, 128, 112, 112] -- | \u2514\u2500MaxPool2d: 2-10 [-1, 128, 56, 56] -- | \u2514\u2500Conv2d: 2-11 [-1, 256, 56, 56] 295,168 | \u2514\u2500ReLU: 2-12 [-1, 256, 56, 56] -- | \u2514\u2500Conv2d: 2-13 [-1, 256, 56, 56] 590,080 | \u2514\u2500ReLU: 2-14 [-1, 256, 56, 56] -- | \u2514\u2500Conv2d: 2-15 [-1, 256, 56, 56] 590,080 | \u2514\u2500ReLU: 2-16 [-1, 256, 56, 56] -- | \u2514\u2500Conv2d: 2-17 [-1, 256, 56, 56] 590,080 | \u2514\u2500ReLU: 2-18 [-1, 256, 56, 56] -- | \u2514\u2500MaxPool2d: 2-19 [-1, 256, 28, 28] -- | \u2514\u2500Conv2d: 2-20 [-1, 512, 28, 28] 1,180,160 | \u2514\u2500ReLU: 2-21 [-1, 512, 28, 28] -- | \u2514\u2500Conv2d: 2-22 [-1, 512, 28, 28] 2,359,808 | \u2514\u2500ReLU: 2-23 [-1, 512, 28, 28] -- | \u2514\u2500Conv2d: 2-24 [-1, 512, 28, 28] 2,359,808 | \u2514\u2500ReLU: 2-25 [-1, 512, 28, 28] -- | \u2514\u2500Conv2d: 2-26 [-1, 512, 28, 28] 2,359,808 | \u2514\u2500ReLU: 2-27 [-1, 512, 28, 28] -- | \u2514\u2500MaxPool2d: 2-28 [-1, 512, 14, 14] -- | \u2514\u2500Conv2d: 2-29 [-1, 512, 14, 14] 2,359,808 | \u2514\u2500ReLU: 2-30 [-1, 512, 14, 14] -- | \u2514\u2500Conv2d: 2-31 [-1, 512, 14, 14] 2,359,808 | \u2514\u2500ReLU: 2-32 [-1, 512, 14, 14] -- | \u2514\u2500Conv2d: 2-33 [-1, 512, 14, 14] 2,359,808 | \u2514\u2500ReLU: 2-34 [-1, 512, 14, 14] -- | \u2514\u2500Conv2d: 2-35 [-1, 512, 14, 14] 2,359,808 | \u2514\u2500ReLU: 2-36 [-1, 512, 14, 14] -- | \u2514\u2500MaxPool2d: 2-37 [-1, 512, 7, 7] -- \u251c\u2500AdaptiveAvgPool2d: 1-2 [-1, 512, 7, 7] -- \u251c\u2500Sequential: 1-3 [-1, 1000] -- | \u2514\u2500Linear: 2-38 [-1, 4096] 102,764,544 | \u2514\u2500ReLU: 2-39 [-1, 4096] -- | \u2514\u2500Dropout: 2-40 [-1, 4096] -- | \u2514\u2500Linear: 2-41 [-1, 4096] 16,781,312 | \u2514\u2500ReLU: 2-42 [-1, 4096] -- | \u2514\u2500Dropout: 2-43 [-1, 4096] -- | \u2514\u2500Linear: 2-44 [-1, 1000] 4,097,000 ========================================================================================== Total params: 143,667,240 Trainable params: 143,667,240 Non-trainable params: 0 Total mult-adds (G): 19.78 ========================================================================================== Input size (MB): 0.57 Forward/backward pass size (MB): 113.38 Params size (MB): 548.05 Estimated Total Size (M
…
ze (Tuple[int, int, int]): Image size as a tuple of (channels, height, width). Returns: model_summary (torchsummary.model_statistics.ModelStatistics): Model summary. \"\"\" model_summary = torchsummary . summary ( model , image_size ) return model_summary alexnet_model_summary = torchsummary_wrapper ( alexnet_ , image_size = ( 3 , 224 , 224 )) ========================================================================================== Layer (type:depth-idx) Output Shape Param # ========================================================================================== \u251c\u2500Sequential: 1-1 [-1, 256, 6, 6] -- | \u2514\u2500Conv2d: 2-1 [-1, 64, 55, 55] 23,296 | \u2514\u2500ReLU: 2-2 [-1, 64, 55, 55] -- | \u2514\u2500MaxPool2d: 2-3 [-1, 64, 27, 27] -- | \u2514\u2500Conv2d: 2-4 [-1, 192, 27, 27] 307,392 | \u2514\u2500ReLU: 2-5 [-1, 192, 27, 27] -- | \u2514\u2500MaxPool2d: 2-6 [-1, 192, 13, 13] -- | \u2514\u2500Conv2d: 2-7 [-1, 384, 13, 13] 663,936 | \u2514\u2500ReLU: 2-8 [-1, 384, 13, 13] -- | \u2514\u2500Conv2d: 2-9 [-1, 256, 13, 13] 884,992 | \u2514\u2500ReLU: 2-10 [-1, 256, 13, 13] -- | \u2514\u2500Conv2d: 2-11 [-1, 256, 13, 13] 590,080 | \u2514\u2500ReLU: 2-12 [-1, 256, 13, 13] -- | \u2514\u2500MaxPool2d: 2-13 [-1, 256, 6, 6] -- \u251c\u2500AdaptiveAvgPool2d: 1-2 [-1, 256, 6, 6] -- \u251c\u2500Sequential: 1-3 [-1, 1000] -- | \u2514\u2500Dropout: 2-14 [-1, 9216] -- | \u2514\u2500Linear: 2-15 [-1, 4096] 37,752,832 | \u2514\u2500ReLU: 2-16 [-1, 4096] -- | \u2514\u2500Dropout: 2-17 [-1, 4096] -- | \u2514\u2500Linear: 2-18 [-1, 4096] 16,781,312 | \u2514\u2500ReLU: 2-19 [-1, 4096] -- | \u2514\u2500Linear: 2-20 [-1, 1000] 4,097,000 ========================================================================================== Total params: 61,100,840 Trainable params: 61,100,840 Non-trainable params: 0 Total mult-adds (M): 775.28 ========================================================================================== Input size (MB): 0.57 Forward/backward pass size (MB): 3.77 Params size (MB): 233.08 Estimated Total Size (MB): 237.43 ========================================================================================== vgg16_model_summary = torchsummary_wrapper ( vgg16_ , image_size = ( 3 , 224 , 224 )) ========================================================================================== Layer (type:depth-idx) Output Shape Param # ========================================================================================== \u251c\u2500Sequential: 1-1 [-1, 512, 7, 7] -- | \u2514\u2500Conv2d: 2-1 [-1, 64, 224, 224] 1,792 | \u2514\u2500ReLU: 2-2 [-1, 64, 224, 224] -- | \u2514\u2500Conv2d: 2-3 [-1, 64, 224, 224] 36,928 | \u2514\u2500ReLU: 2-4 [-1, 64, 224, 224] -- | \u2514\u2500MaxPool2d: 2-5 [-1, 64, 112, 112] -- | \u2514\u2500Conv2d: 2-6 [-1, 128, 112, 112] 73,856 | \u2514\u2500ReLU: 2-7 [-1, 128, 112, 112] -- | \u2514\u2500Conv2d: 2-8 [-1, 128, 112, 112] 147,584 | \u2514\u2500ReLU: 2-9 [-1, 128, 112, 112] -- | \u2514\u2500MaxPool2d: 2-10 [-1, 128, 56, 56] -- | \u2514\u2500Conv2d: 2-11 [-1, 256, 56, 56] 295,168 | \u2514\u2500ReLU: 2-12 [-1, 256, 56, 56] -- | \u2514\u2500Conv2d: 2-13 [-1, 256, 56, 56] 590,080 | \u2514\u2500ReLU: 2-14 [-1, 256, 56, 56] -- | \u2514\u2500Conv2d: 2-15 [-1, 256, 56, 56] 590,080 | \u2514\u2500ReLU: 2-16 [-1, 256, 56, 56] -- | \u2514\u2500MaxPool2d: 2-17 [-1, 256, 28, 28] -- | \u2514\u2500Conv2d: 2-18 [-1, 512, 28, 28] 1,180,160 | \u2514\u2500ReLU: 2-19 [-1, 512, 28, 28] -- | \u2514\u2500Conv2d: 2-20 [-1, 512, 28, 28] 2,359,808 | \u2514\u2500ReLU: 2-21 [-1, 512, 28, 28] -- | \u2514\u2500Conv2d: 2-22 [-1, 512, 28, 28] 2,359,808 | \u2514\u2500ReLU: 2-23 [-1, 512, 28, 28] -- | \u2514\u2500MaxPool2d: 2-24 [-1, 512, 14, 14] -- | \u2514\u2500Conv2d: 2-25 [-1, 512, 14, 14] 2,359,808 | \u2514\u2500ReLU: 2-26 [-1, 512, 14, 14] -- | \u2514\u2500Conv2d: 2-27 [-1, 512, 14, 14] 2,359,808 | \u2514\u2500ReLU: 2-28 [-1, 512, 14, 14] -- | \u2514\u2500Conv2d: 2-29 [-1, 512, 14, 14] 2,359,808 | \u2514\u2500ReLU: 2-30 [-1, 512, 14, 14] -- | \u2514\u2500MaxPool2d: 2-31 [-1, 512, 7, 7] -- \u251c\u2500AdaptiveAvgPool2d: 1-2 [-1, 512, 7, 7] -- \u251c\u2500Sequential: 1-3 [-1, 1000] -- | \u2514\u2500Linear: 2-32 [-1, 4096] 102,764,544 | \u2514\u2500ReLU: 2-33 [-1, 4096] -- | \u2514\u2500Dropout: 2-34 [-1, 4096] -- | \u2514\u2500Linear: 2-35 [-1, 4096] 16,781,312 | \u2514\u2500ReLU: 2-36 [-1, 4096] -- | \u2514\u2500Dropout: 2-37 [-1, 4096] -- | \u2514\u2500Linear: 2-38 [-1, 1000] 4,097,000 ========================================================================================== Total params: 138,357,544 Trainable params: 138,357,544 Non-trainable params: 0 Total mult-adds (G): 15.61 ========================================================================================== Input size (MB): 0.57 Forward/backward pass size (MB): 103.43 Params size (MB): 527.79 Estimated Total Size (MB): 631.80 ========================================================================================== resnet34_model_summary = torchsummary_wrapper ( resnet34_ , image_size = ( 3 , 224 , 224 )) ========================================================================================== Layer (type:depth-idx) Output Shape Param # ========================================================================================== \u251c\u2500Conv2d: 1-1 [-1, 64, 112, 112] 9,408 \u251c\u2500BatchNorm2d: 1-2 [-1, 64, 112, 112] 128 \u251c\u2500ReLU: 1-3 [-1, 64, 112, 112] -- \u251c\u2500MaxPool2d: 1-4 [-1, 64, 56, 56] -- \u251c\u2500Sequential: 1-5 [-1, 64, 56, 56] -- | \u2514\u2500BasicBlock: 2-1 [-1, 64, 56, 56] -- | | \u2514\u2500Conv2d: 3-1 [-1, 64, 56, 56] 36,864 | | \u2514\u2500BatchNorm2d: 3-2 [-1, 64, 56, 56] 128 | | \u2514\u2500ReLU: 3-3 [-1, 64, 56, 56] -- | | \u2514\u2500Conv2d: 3-4 [-1, 64, 56, 56] 36,864 | | \u2514\u2500BatchNorm2d: 3-5 [-1, 64, 56, 56] 128 | | \u2514\u2500ReLU: 3-6 [-1, 64, 56, 56] -- | \u2514\u2500BasicBlock: 2-2 [-1, 64, 56, 56] -- | | \u2514\u2500Conv2d: 3-7 [-1, 64, 56, 56] 36,864 | | \u2514\u2500BatchNorm2d: 3-8 [-1, 64, 56, 56] 128 | | \u2514\u2500ReLU: 3-9 [-1, 64, 56, 56] -- | | \u2514\u2500Conv2d: 3-10 [-1, 64, 56, 56] 36,864 | | \u2514\u2500BatchNorm2d: 3-11 [-1, 64, 56, 56] 128 | | \u2514\u2500ReLU: 3-12 [-1, 64, 56, 56] -- | \u2514\u2500BasicBlock: 2-3 [-1, 64, 56, 56] -- | | \u2514\u2500Conv2d: 3-13 [-1, 64, 56, 56] 36,864 | | \u2514\u2500BatchNorm2d: 3-14 [-1, 64, 56, 56] 128 | | \u2514\u2500ReLU: 3-15 [-1, 64, 56, 56] -- | | \u2514\u2500Conv2d: 3-16 [-1, 64, 56, 56] 36,864 | | \u2514\u2500BatchNorm2d: 3-17 [-1, 64, 56, 56] 128 | | \u2514\u2500ReLU: 3-18 [-1, 64, 56, 56] -- \u251c\u2500Sequential: 1-6 [-1, 128, 28, 28] -- | \u2514\u2500BasicBlock: 2-4 [-1, 128, 28, 28] -- | | \u2514\u2500Conv2d: 3-19 [-1, 128, 28, 28] 73,728 | | \u2514\u2500BatchNorm2d: 3-20 [-1, 128, 28, 28] 256 | | \u2514\u2500ReLU: 3-21 [-1, 128, 28, 28] -- | | \u2514\u2500Conv2d: 3-22 [-1, 128, 28, 28] 147,456 | | \u2514\u2500BatchNorm2d: 3-23 [-1, 128, 28, 28] 256 | | \u2514\u2500Sequential: 3-24 [-1, 128, 28, 28] 8,448 | | \u2514\u2500ReLU: 3-25 [-1, 128, 28, 28] -- | \u2514\u2500BasicBlock: 2-5 [-1, 128, 28, 28] -- | | \u2514\u2500Conv2d: 3-26 [-1, 128, 28, 28] 147,456 | | \u2514\u2500BatchNorm2d: 3-27 [-1, 128, 28, 28] 256 | | \u2514\u2500ReLU: 3-28 [-1, 128, 28, 28] -- | | \u2514\u2500Conv2d: 3-29 [-1, 128, 28, 28] 147,456 | | \u2514\u2500BatchNorm2d: 3-30 [-1, 128, 28, 28] 256 | | \u2514\u2500ReLU: 3-31 [-1, 128, 28, 28] -- | \u2514\u2500BasicBlock: 2-6 [-1, 128, 28, 28] -- | | \u2514\u2500Conv2d: 3-32 [-1, 128, 28, 28] 147,456 | | \u2514\u2500BatchNorm2d: 3-33 [-1, 128, 28, 28] 256 | | \u2514\u2500ReLU: 3-34 [-1, 128, 28, 28] -- | | \u2514\u2500Conv2d: 3-35 [-1, 128, 28, 28] 147,456 | | \u2514\u2500BatchNorm2d: 3-36 [-1, 128, 28, 28] 256 | | \u2514\u2500ReLU: 3-37 [-1, 128, 28, 28] -- | \u2514\u2500BasicBlock: 2-7 [-1, 128, 28, 28] -- | | \u2514\u2500Conv2d: 3-38 [-1, 128, 28, 28] 147,456 | | \u2514\u2500BatchNorm2d: 3-39 [-1, 128, 28, 28] 256 | | \u2514\u2500ReLU: 3-40 [-1, 128, 28, 28] -- | | \u2514\u2500Conv2d: 3-41 [-1, 128, 28, 28] 147,456 | | \u2514\u2500BatchNorm2d: 3-42 [-1, 128, 28, 28] 256 | | \u2514\u2500ReLU: 3-43 [-1, 128, 28, 28] -- \u251c\u2500Sequential: 1-7 [-1, 256, 14, 14] -- | \u2514\u2500BasicBlock: 2-8 [-1, 256, 14, 14] -- | | \u2514\u2500Conv2d: 3-44 [-1, 256, 14, 14] 294,912 | | \u2514\u2500BatchNorm2d: 3-45 [-1, 256, 14, 14] 512 | | \u2514\u2500ReLU: 3-46 [-1, 256, 14, 14] -- | | \u2514\u2500Conv2d: 3-47 [-1, 256, 14, 14] 589,824 | | \u2514\u2500BatchNorm2d: 3-48 [-1, 256, 14, 14] 512 | | \u2514\u2500Sequential: 3-49 [-1, 256, 14, 14] 33,280 | | \u2514\u2500ReLU: 3-50 [-1, 256, 14, 14] -- | \u2514\u2500BasicBlock: 2-9 [-1, 256, 14, 14] -- | | \u2514\u2500Conv2d: 3-51 [-1, 256, 14, 14] 589,824 | | \u2514\u2500BatchNorm2d: 3-52 [-1, 256, 14, 14] 512 | | \u2514\u2500ReLU: 3-53 [-1, 256, 14, 14] -- | | \u2514\u2500Conv2d: 3-54 [-1, 256, 14, 14] 589,824 | | \u2514\u2500BatchNorm2d: 3-55 [-1, 256, 14, 14] 512 | | \u2514\u2500ReLU: 3-56 [-1, 256, 14, 14] -- | \u2514\u2500BasicBlock: 2-10 [-1, 256, 14, 14] -- | | \u2514\u2500Conv2d: 3-57 [-1, 256, 14, 14] 589,824 | | \u2514\u2500BatchNorm2d: 3-58 [-1, 256, 14, 14] 512 | | \u2514\u2500ReLU: 3-59 [-1, 256, 14, 14] -- | | \u2514\u2500Conv2d: 3-60 [-1, 256, 14, 14] 589,824 | | \u2514\u2500BatchNorm2d: 3-61 [-1, 256, 14, 14] 512 | | \u2514\u2500ReLU: 3-62 [-1, 256, 14, 14] -- | \u2514\u2500BasicBlock: 2-11 [-1, 256, 14, 14] -- | | \u2514\u2500Conv2d: 3-63 [-1, 256, 14, 14] 589,824 | | \u2514\u2500BatchNorm2d: 3-64 [-1, 256, 14, 14] 512 | | \u2514\u2500ReLU: 3-65 [-1, 256, 14, 14] -- | | \u2514\u2500Conv2d: 3-66 [-1, 256, 14, 14] 589,824 | | \u2514\u2500BatchNorm2d: 3-67 [-1, 256, 14, 14] 512 | | \u2514\u2500ReLU: 3-68 [-1, 256, 14, 14] -- | \u2514\u2500BasicBlock: 2-12 [-1, 256, 14, 14] -- | | \u2514\u2500Conv2d: 3-69 [-1, 256, 14, 14] 589,824 | | \u2514\u2500BatchNorm2d: 3-70 [-1, 256, 14, 14] 512 | | \u2514\u2500ReLU: 3-71 [-1, 256, 14, 14] -- | | \u2514\u2500Conv2d: 3-72 [-1, 256, 14, 14] 589,824 | | \u2514\u2500BatchNorm2d: 3-73 [-1, 256, 14, 14] 512 | | \u2514\u2500ReLU: 3-74 [-1, 256, 14, 14] -- | \u2514\u2500BasicBlock: 2-13 [-1, 256, 14, 14] -- | | \u2514\u2500Conv2d: 3-75 [-1, 256, 14, 14] 589,824 | | \u2514\u2500BatchNorm2d: 3-76 [-1, 256, 14, 14] 512 | | \u2514\u2500ReLU: 3-77 [-1, 256, 14, 14] -- | | \u2514\u2500Conv2d: 3-78 [-1, 256, 14, 14] 589,824 | | \u2514\u2500BatchNorm2d: 3-79 [-1, 256, 14, 14] 512 | | \u2514\u2500ReLU: 3-80 [-1, 256, 14, 14] -- \u251c\u2500Sequential: 1-8 [-1, 512, 7, 7] -- | \u2514\u2500BasicBlock: 2-14 [-1, 512, 7, 7] -- | | \u2514\u2500Conv2d: 3-81 [-1, 512, 7, 7] 1,179,648 | | \u2514\u2500BatchNorm2d: 3-82 [-1, 512, 7, 7] 1,024 | | \u2514\u2500ReLU: 3-83 [-1, 512, 7, 7] -- | | \u2514\u2500Conv2d: 3-84 [-1, 512, 7, 7] 2,359,296 | | \u2514\u2500BatchNorm2d: 3-85 [-1, 512, 7, 7] 1,024 | | \u2514\u2500Sequential: 3-86 [-1, 512, 7, 7] 132,096 | | \u2514\u2500ReLU: 3-87 [-1, 512, 7, 7] -- | \u2514\u2500BasicBlock: 2-15 [-1, 512, 7, 7] -- | | \u2514\u2500Conv2d: 3-88 [-1, 512, 7, 7] 2,359,296 | | \u2514\u2500BatchNorm2d: 3-89 [-1, 512, 7, 7] 1,024 | | \u2514\u2500ReLU: 3-90 [-1, 512, 7, 7] -- | | \u2514\u2500Conv2d: 3-91 [-1, 512, 7, 7] 2,359,296 | | \u2514\u2500BatchNorm2d: 3-92 [-1, 512, 7, 7] 1,024 | | \u2514\u2500ReLU: 3-93 [-1, 512, 7, 7] -- | \u2514\u2500BasicBlock: 2-16 [-1, 512, 7, 7] -- | | \u2514\u2500Conv2d: 3-94 [-1, 512, 7, 7] 2,359,296 | | \u2514\u2500BatchNorm2d: 3-95 [-1, 512, 7, 7] 1,024 | | \u2514\u2500ReLU: 3-96 [-1, 512, 7, 7] -- | | \u2514\u2500Conv2d: 3-97 [-1, 512, 7, 7] 2,359,296 | | \u2514\u2500BatchNorm2d: 3-98 [-1, 512, 7, 7] 1,024 | | \u2514\u2500ReLU: 3-99 [-1, 512, 7, 7] -- \u251c\u2500AdaptiveAvgPool2d: 1-9 [-1, 512, 1, 1] -- \u251c\u2500Linear: 1-10 [-1, 1000] 513,000 ========================================================================================== Total params: 21,797,672 Trainable params: 21,797,672 Non-trainable params: 0 Total mult-adds (G): 3.71 ========================================================================================== Input size (MB): 0.57 Forward/backward pass size (MB): 57.05 Params size (MB): 83.15 Estimated Total Size (MB): 1
…
ensorflow import keras # Display from IPython.display import Image , display import matplotlib.pyplot as plt import matplotlib.cm as cm tf . keras . applications . vgg16 . VGG16 ( include_top = True , weights = 'imagenet' , input_tensor = None , input_shape = None , pooling = None , classes = 1000 , classifier_activation = 'softmax' ) . summary () Model: \"vgg16\" _________________________________________________________________ Layer (type) Output Shape Param # ================================================================= input_3 (InputLayer) [(None, 224, 224, 3)] 0 block1_conv1 (Conv2D) (None, 224, 224, 64) 1792 block1_conv2 (Conv2D) (None, 224, 224, 64) 36928 block1_pool (MaxPooling2D) (None, 112, 112, 64) 0 block2_conv1 (Conv2D) (None, 112, 112, 128) 73856 block2_conv2 (Conv2D) (None, 112, 112, 128) 147584 block2_pool (MaxPooling2D) (None, 56, 56, 128) 0 block3_conv1 (Conv2D) (None, 56, 56, 256) 295168 block3_conv2 (Conv2D) (None, 56, 56, 256) 590080 block3_conv3 (Conv2D) (None, 56, 56, 256) 590080 block3_pool (MaxPooling2D) (None, 28, 28, 256) 0 block4_conv1 (Conv2D) (None, 28, 28, 512) 1180160 block4_conv2 (Conv2D) (None, 28, 28, 512) 2359808 block4_conv3 (Conv2D) (None, 28, 28, 512) 2359808 block4_pool (MaxPooling2D) (None, 14, 14, 512) 0 block5_conv1 (Conv2D) (None, 14, 14, 512) 2359808 block5_conv2 (Conv2D) (None, 14, 14, 512) 2359808 block5_conv3 (Conv2D) (None, 14, 14, 512) 2359808 block5_pool (MaxPooling2D) (None, 7, 7, 512) 0 flatten (Flatten) (None, 25088) 0 fc1 (Dense) (None, 4096) 102764544 fc2 (Dense) (None, 4096) 16781312 predictions (Dense) (None, 1000) 4097000 ================================================================= Total params: 138,357,544 Trainable params: 138,357,544 Non-trainable params: 0 _________________________________________________________________ def get_img_array ( img_path , size ): # `img` is a PIL image of size 224x224 img = keras . preprocessing . image . load_img ( img_path , target_size = size ) # `array` is a float32 Numpy
…
loop, label = 0, so replace all instance of 0 in y_true with pos class 1 and others 0 binarize_col = np . where ( y_true == label , 1 , 0 ) binarized_cols . append ( binarize_col ) label_binarized_y = np . vstack ( binarized_cols ) . T [1 0 0 1 0 0] [0 1 0 0 1 0] [0 0 1 0 0 1] Second way: Initialize label_binarized_y with shape (len(y_true), len(classes)) . That is, if y_true is of length 6 elements, and we have 3 classes, then it is necessary that after binarizing (one-hot), we must have \\((6, 3)\\) shape. loop through y_true with enumerate : if we encounter y_true = 0 , then we should have [1, 0, 0] , since we initialized our label_binarized_y as all zeros, then label_binarized_y[y_index] is just [0, 0, 0] , we want to assign the 0-th index (coincides with the class index by the way) as 1, so we do label_binarized_y[y_index][int(each_y_true_element)] = 1 . if we encounter y_true = 1 , then we should have [0, 1, 0] , since we initialized our label_binarized_y as all zeros, then label_binarized_y[y_index] is just [0, 0, 0] , we want to assign the 1-st index (coincides with the class index by the way) as 1, so we do label_binarized_y[y_index][int(each_y_true_element)] = 1 . if we encounter y_true = 2 , then we should have [0, 0, 1] , since we initialized our label_binarized_y as all zeros, then label_binarized_y[y_index] is just [0, 0, 0] , we want to assign the 2-nd index (coincides with the class index by the way) as 1, so we do label_binarized_y[y_index][int(each_y_true_element)] = 1 . label_binarized_y = np . zeros ( shape = ( len ( y_true ), len ( classes ))) # this is a column wise operation but should eventually show \"transposed\" for y_index , each_y_true_element in enumerate ( y_true ): label_binarized_y [ y_index ][ int (
…
 , \"kernel_size\" , \"mult_adds\" , ], depth = 3 , verbose = 1 ) torch.Size([8, 2048]) torch.Size([8, 2]) ========================================================================================================================================================================== Layer (type:depth-idx) Input Shape Output Shape Param # Kernel Shape Mult-Adds ========================================================================================================================================================================== CustomNeuralNet -- -- -- -- -- \u251c\u2500ResNet: 1-1 [8, 3, 256, 256] [8, 2048] -- -- -- \u2502 \u2514\u2500Sequential: 2-1 [8, 3, 256, 256] [8, 64, 128, 128] -- -- -- \u2502 \u2502 \u2514\u2500Conv2d: 3-1 [8, 3, 256, 256] [8, 32, 128, 128] 864 [3, 32, 3, 3] 113,246,208 \u2502 \u2502 \u2514\u2500BatchNorm2d: 3-2 [8, 32, 128, 128] [8, 32, 128, 128] 64 [32] 512 \u2502 \u2502 \u2514\u2500ReLU: 3-3 [8, 32, 128, 128] [8, 32, 128, 128] -- -- -- \u2502 \u2502 \u2514\u2500Conv2d: 3-4 [8, 32, 128, 128] [8, 32, 128, 128] 9,216 [32, 32, 3, 3] 1,207,959,552 \u2502 \u2502 \u2514\u2500BatchNorm2d: 3-5 [8, 32, 128, 128] [8, 32, 128, 128] 64 [32] 512 \u2502 \u2502 \u2514\u2500ReLU: 3-6 [8, 32, 128, 128] [8, 32, 128, 128] -- -- -- \u2502 \u2502 \u2514\u2500Conv2d: 3-7 [8, 32, 128, 128] [8, 64, 128, 128] 18,432 [32, 64, 3, 3] 2,415,919,104 \u2502 \u2514\u2500BatchNorm2d: 2-2 [8, 64, 128, 128] [8, 64, 128, 128] 128 [64] 1,024 \u2502 \u2514\u2500ReLU: 2-3 [8, 64, 128, 128] [8, 64, 128, 128] -- -- -- \u2502 \u2514\u2500MaxPool2d: 2-4 [8, 64, 128, 128] [8, 64, 64, 64] -- -- -- \u2502 \u2514\u2500Sequential: 2-5 [8, 64, 64, 64] [8, 256, 64, 64] -- -- -- \u2502 \u2502 \u2514\u2500Bottleneck: 3-8 [8, 64, 64, 64] [8, 256, 64, 64] 75,008 -- 2,415,929,344 \u2502 \u2502 \u2514\u2500Bottleneck: 3-9 [8, 256, 64, 64] [8, 256, 64, 64] 70,400 -- 2,281,707,520 \u2502 \u2502 \u2514\u2500Bottleneck: 3-10 [8, 256, 64, 64] [8, 256, 64, 64] 70,400 -- 2,281,707,520 \u2502 \u2514\u2500Sequential: 2-6 [8, 256, 64, 64] [8, 512, 32, 32] -- -- -- \u2502 \u2502 \u2514\u2500Bottleneck: 3-11 [8, 256, 64, 64] [8, 512, 32, 32] 379,392 -- 3,892,334,592 \u2502 \u2502 \u2514\u2500Bottleneck: 3-12 [8, 512, 32, 32] [8, 512, 32, 32] 280,064 -- 2,281,713,664 \u2502 \u2502 \u2514\u2500Bottleneck: 3-13 [8, 512, 32, 32] [8, 512, 32, 32] 280,064 -- 2,281,713,664 \u2502 \u2502 \u2514\u2500Bottleneck: 3-14 [8, 512, 32, 32] [8, 512, 32, 32] 280,064 -- 2,281,713,664 \u2502 \u2514\u2500Sequential: 2-7 [8, 512, 32, 32] [8, 1024, 16, 16] -- -- -- \u2502 \u2502 \u2514\u2500Bottleneck: 3-15 [8, 512, 32, 32] [8, 1024, 16, 16] 1,512,448 -- 3,892,355,072 \u2502 \u2502 \u2514\u2500Bottleneck: 3-16 [8, 1024, 16, 16] [8, 1024, 16, 16] 1,117,184 -- 2,281,725,952 \u2502 \u2502 \u2514\u2500Bottleneck: 3-17 [8, 1024, 16, 16] [8, 1024, 16, 16] 1,117,184 -- 2,281,725,952 \u2502 \u2502 \u2514\u2500Bottleneck: 3-18 [8, 1024, 16, 16] [8, 1024, 16, 16] 1,117,184 -- 2,281,725,952 \u2502 \u2502 \u2514\u2500Bottleneck: 3-19 [8, 1024, 16, 16] [8, 1024, 16, 16] 1,117,184 -- 2,281,725,952 \u2502 \u2502 \u2514\u2500Bottleneck: 3-20 [8, 1024, 16, 16] [8, 1024, 16, 16] 1,117,184 -- 2,281,725,952 \u2502 \u2514\u2500Sequential: 2-8 [8, 1024, 16, 16] [8, 2048, 8, 8] -- -- -- \u2502 \u2502 \u2514\u2500Bottleneck: 3-21 [8, 1024, 16, 16] [8, 2048, 8, 8] 6,039,552 -- 3,892,396,032 \u2502 \u2502 \u2514\u2500Bottleneck: 3-22 [8, 2048, 8, 8] [8, 2048, 8, 8] 4,462,592 -- 2,281,750,528 \u2502 \u2502 \u2514\u2500Bottleneck: 3-23 [8, 2048, 8, 8] [8, 2048, 8, 8] 4,462,592 -- 2,281,750,528 \u2502 \u2514\u2500SelectAdaptivePool2d: 2-9 [8, 2048, 8, 8] [8, 2048] -- -- -- \u2502 \u2502 \u2514\u2500AdaptiveAvgPool2d: 3-24 [8, 2048, 8, 8] [8, 2048, 1, 1] -- -- -- \u2502 \u2502 \u2514\u2500Flatten: 3-25 [8, 2048, 1, 1] [8, 2048] -- -- -- \u2502 \u2514\u2500Identity: 2-10 [8, 2048] [8, 2048] -- -- -- \u251c\u2500Sequential: 1-2 [8, 2048] [8, 2] -- -- -- \u2502 \u2514\u2500Linear: 2-11 [8, 2048] [8, 2] 4,098 [2048, 2] 32,784 ========================================================================================================================================================================== Total params: 23,531,362 Trainable params: 23,531,362 Non-trainable params: 0 Total mult-adds (G): 45.21 ===========================================================================================================================
…
